…
[2026-02-01 19:28:47,179 - DEBUG - multitask_train.py:124] - Dataloaders successfully obtained.
[2026-02-01 19:28:47,187 - DEBUG - multitask_train.py:123] - 4 in train set for Pizza.egtea
[2026-02-01 19:28:47,187 - DEBUG - multitask_train.py:124] - Dataloaders successfully obtained.
[2026-02-01 19:28:47,218 - DEBUG - multitask_train.py:123] - 21 in train set for Pizza.cmu
[2026-02-01 19:28:47,218 - DEBUG - multitask_train.py:124] - Dataloaders successfully obtained.
[2026-02-01 19:28:48,541 - INFO - alignment_training_loop.py:212] - MultiProngAttDropoutModel(
  (base_model): Resnet50Encoder(
    (conv_embedding): Sequential(
      (0): Conv3d(1024, 1024, kernel_size=(3, 3, 3), stride=(1, 1, 1), padding=same)
      (1): ReLU()
      (2): Conv3d(1024, 512, kernel_size=(3, 3, 3), stride=(1, 1, 1), padding=same)
      (3): ReLU()
    )
    (linear_embedding): Sequential(
      (0): Linear(in_features=512, out_features=512, bias=True)
      (1): ReLU()
      (2): Linear(in_features=512, out_features=512, bias=True)
      (3): ReLU()
      (4): Linear(in_features=512, out_features=128, bias=True)
      (5): ReLU()
    )
  )
  (head_models): ModuleList(
    (0-15): 16 x HeadModel(
      (fc_layers): Sequential(
        (0): Linear(in_features=128, out_features=512, bias=True)
        (1): ReLU()
        (2): Linear(in_features=512, out_features=128, bias=True)
        (3): ReLU()
        (4): Linear(in_features=128, out_features=256, bias=True)
        (5): ReLU()
        (6): Linear(in_features=256, out_features=128, bias=True)
      )
    )
  )
  (attention_layer): Sequential(
    (0): Linear(in_features=2048, out_features=512, bias=True)
    (1): Tanh()
    (2): Linear(in_features=512, out_features=1024, bias=True)
    (3): Tanh()
    (4): Linear(in_features=1024, out_features=512, bias=True)
    (5): Tanh()
    (6): Linear(in_features=512, out_features=512, bias=True)
    (7): Tanh()
    (8): Linear(in_features=512, out_features=16, bias=True)
    (9): Softmax(dim=1)
  )
)
[2026-02-01 19:28:50,560 - INFO - alignment_training_loop.py:296] - [BATCH 0] Task: Salad.cmu, lengths=[390, 272], total=662
[2026-02-01 19:28:55,603 - INFO - alignment_training_loop.py:343] - [BATCH 0] Loss: 1394.3301
[2026-02-01 19:29:02,011 - WARNING - alignment_training_loop.py:289] - [SKIP LARGE] Task: PastaSalad.egtea, frames=3924 > 3500, lengths=[2196, 1728]
…
