…
[2026-01-28 16:51:23,420 - DEBUG - multitask_train.py:124] - Dataloaders successfully obtained.
[2026-01-28 16:51:23,428 - DEBUG - multitask_train.py:123] - 4 in train set for Pizza.egtea
[2026-01-28 16:51:23,428 - DEBUG - multitask_train.py:124] - Dataloaders successfully obtained.
[2026-01-28 16:51:23,459 - DEBUG - multitask_train.py:123] - 21 in train set for Pizza.cmu
[2026-01-28 16:51:23,459 - DEBUG - multitask_train.py:124] - Dataloaders successfully obtained.
[2026-01-28 16:51:24,817 - INFO - alignment_training_loop.py:210] - MultiProngAttDropoutModel(
  (base_model): Resnet50Encoder(
    (conv_embedding): Sequential(
      (0): Conv3d(1024, 1024, kernel_size=(3, 3, 3), stride=(1, 1, 1), padding=same)
      (1): ReLU()
      (2): Conv3d(1024, 512, kernel_size=(3, 3, 3), stride=(1, 1, 1), padding=same)
      (3): ReLU()
    )
    (linear_embedding): Sequential(
      (0): Linear(in_features=512, out_features=512, bias=True)
      (1): ReLU()
      (2): Linear(in_features=512, out_features=512, bias=True)
      (3): ReLU()
      (4): Linear(in_features=512, out_features=128, bias=True)
      (5): ReLU()
    )
  )
  (head_models): ModuleList(
    (0-15): 16 x HeadModel(
      (fc_layers): Sequential(
        (0): Linear(in_features=128, out_features=512, bias=True)
        (1): ReLU()
        (2): Linear(in_features=512, out_features=128, bias=True)
        (3): ReLU()
        (4): Linear(in_features=128, out_features=256, bias=True)
        (5): ReLU()
        (6): Linear(in_features=256, out_features=128, bias=True)
      )
    )
  )
  (attention_layer): Sequential(
    (0): Linear(in_features=2048, out_features=512, bias=True)
    (1): Tanh()
    (2): Linear(in_features=512, out_features=1024, bias=True)
    (3): Tanh()
    (4): Linear(in_features=1024, out_features=512, bias=True)
    (5): Tanh()
    (6): Linear(in_features=512, out_features=512, bias=True)
    (7): Tanh()
    (8): Linear(in_features=512, out_features=16, bias=True)
    (9): Softmax(dim=1)
  )
)
[2026-01-28 16:51:26,726 - INFO - alignment_training_loop.py:269] - [BATCH 0] Task: Salad.cmu
[2026-01-28 16:51:26,928 - INFO - alignment_training_loop.py:286] - [BATCH 0] After preprocessing - Num sequences: 2, Lengths: [396, 379]
[2026-01-28 16:51:32,678 - INFO - alignment_training_loop.py:323] - [BATCH 0] Loss value: 301431136.0000
…
