…
[2026-02-01 14:39:35,445 - DEBUG - multitask_train.py:124] - Dataloaders successfully obtained.
[2026-02-01 14:39:35,453 - DEBUG - multitask_train.py:123] - 4 in train set for Pizza.egtea
[2026-02-01 14:39:35,453 - DEBUG - multitask_train.py:124] - Dataloaders successfully obtained.
[2026-02-01 14:39:35,489 - DEBUG - multitask_train.py:123] - 21 in train set for Pizza.cmu
[2026-02-01 14:39:35,489 - DEBUG - multitask_train.py:124] - Dataloaders successfully obtained.
[2026-02-01 14:39:36,822 - INFO - alignment_training_loop.py:212] - MultiProngAttDropoutModel(
  (base_model): Resnet50Encoder(
    (conv_embedding): Sequential(
      (0): Conv3d(1024, 1024, kernel_size=(3, 3, 3), stride=(1, 1, 1), padding=same)
      (1): ReLU()
      (2): Conv3d(1024, 512, kernel_size=(3, 3, 3), stride=(1, 1, 1), padding=same)
      (3): ReLU()
    )
    (linear_embedding): Sequential(
      (0): Linear(in_features=512, out_features=512, bias=True)
      (1): ReLU()
      (2): Linear(in_features=512, out_features=512, bias=True)
      (3): ReLU()
      (4): Linear(in_features=512, out_features=128, bias=True)
      (5): ReLU()
    )
  )
  (head_models): ModuleList(
    (0-15): 16 x HeadModel(
      (fc_layers): Sequential(
        (0): Linear(in_features=128, out_features=512, bias=True)
        (1): ReLU()
        (2): Linear(in_features=512, out_features=128, bias=True)
        (3): ReLU()
        (4): Linear(in_features=128, out_features=256, bias=True)
        (5): ReLU()
        (6): Linear(in_features=256, out_features=128, bias=True)
      )
    )
  )
  (attention_layer): Sequential(
    (0): Linear(in_features=2048, out_features=512, bias=True)
    (1): Tanh()
    (2): Linear(in_features=512, out_features=1024, bias=True)
    (3): Tanh()
    (4): Linear(in_features=1024, out_features=512, bias=True)
    (5): Tanh()
    (6): Linear(in_features=512, out_features=512, bias=True)
    (7): Tanh()
    (8): Linear(in_features=512, out_features=16, bias=True)
    (9): Softmax(dim=1)
  )
)
[2026-02-01 14:39:38,859 - INFO - alignment_training_loop.py:296] - [BATCH 0] Task: Salad.cmu, lengths=[253, 300], total=553
[2026-02-01 14:39:43,309 - INFO - alignment_training_loop.py:343] - [BATCH 0] Loss: 930.6801
[2026-02-01 14:39:48,866 - INFO - alignment_training_loop.py:296] - [BATCH 1] Task: PastaSalad.egtea, lengths=[1796, 1438], total=3234
…
