…
[2026-02-01 14:04:05,715 - DEBUG - multitask_train.py:124] - Dataloaders successfully obtained.
[2026-02-01 14:04:05,723 - DEBUG - multitask_train.py:123] - 4 in train set for Pizza.egtea
[2026-02-01 14:04:05,723 - DEBUG - multitask_train.py:124] - Dataloaders successfully obtained.
[2026-02-01 14:04:05,757 - DEBUG - multitask_train.py:123] - 21 in train set for Pizza.cmu
[2026-02-01 14:04:05,757 - DEBUG - multitask_train.py:124] - Dataloaders successfully obtained.
[2026-02-01 14:04:07,127 - INFO - alignment_training_loop.py:236] - MultiProngAttDropoutModel(
  (base_model): Resnet50Encoder(
    (conv_embedding): Sequential(
      (0): Conv3d(1024, 1024, kernel_size=(3, 3, 3), stride=(1, 1, 1), padding=same)
      (1): ReLU()
      (2): Conv3d(1024, 512, kernel_size=(3, 3, 3), stride=(1, 1, 1), padding=same)
      (3): ReLU()
    )
    (linear_embedding): Sequential(
      (0): Linear(in_features=512, out_features=512, bias=True)
      (1): ReLU()
      (2): Linear(in_features=512, out_features=512, bias=True)
      (3): ReLU()
      (4): Linear(in_features=512, out_features=128, bias=True)
      (5): ReLU()
    )
  )
  (head_models): ModuleList(
    (0-15): 16 x HeadModel(
      (fc_layers): Sequential(
        (0): Linear(in_features=128, out_features=512, bias=True)
        (1): ReLU()
        (2): Linear(in_features=512, out_features=128, bias=True)
        (3): ReLU()
        (4): Linear(in_features=128, out_features=256, bias=True)
        (5): ReLU()
        (6): Linear(in_features=256, out_features=128, bias=True)
      )
    )
  )
  (attention_layer): Sequential(
    (0): Linear(in_features=2048, out_features=512, bias=True)
    (1): Tanh()
    (2): Linear(in_features=512, out_features=1024, bias=True)
    (3): Tanh()
    (4): Linear(in_features=1024, out_features=512, bias=True)
    (5): Tanh()
    (6): Linear(in_features=512, out_features=512, bias=True)
    (7): Tanh()
    (8): Linear(in_features=512, out_features=16, bias=True)
    (9): Softmax(dim=1)
  )
)
[2026-02-01 14:04:09,015 - INFO - alignment_training_loop.py:302] - [BATCH 0] Task: Salad.cmu
[2026-02-01 14:04:09,428 - INFO - alignment_training_loop.py:319] - [BATCH 0] After preprocessing - Num sequences: 2, Lengths: [408, 529]
[2026-02-01 14:04:16,125 - INFO - alignment_training_loop.py:376] - [BATCH 0] Loss value: 2812.9180
…
